examples/notebooks/MySingleConv.onnx (onnx, 1037 bytes, 1 tensors)

kernel_weights f4 [4, 3, 3, 3]
0	0x00000000	0.0
1	0x3f800000	1.0
2	0x40000000	2.0
3	0x40400000	3.0
4	0x40800000	4.0
5	0x40a00000	5.0
6	0x40c00000	6.0
7	0x40e00000	7.0
8	0x41000000	8.0
9	0x41100000	9.0
10	0x41200000	10.0
11	0x41300000	11.0
12	0x41400000	12.0
13	0x41500000	13.0
14	0x41600000	14.0
15	0x41700000	15.0
16	0x41800000	16.0
17	0x41880000	17.0
18	0x41900000	18.0
19	0x41980000	19.0
20	0x41a00000	20.0
21	0x41a80000	21.0
22	0x41b00000	22.0
23	0x41b80000	23.0
24	0x41c00000	24.0
25	0x41c80000	25.0
26	0x41d00000	26.0
27	0x41d80000	27.0
28	0x41e00000	28.0
29	0x41e80000	29.0
30	0x41f00000	30.0
31	0x41f80000	31.0
32	0x42000000	32.0
33	0x42040000	33.0
34	0x42080000	34.0
35	0x420c0000	35.0
36	0x42100000	36.0
37	0x42140000	37.0
38	0x42180000	38.0
39	0x421c0000	39.0
40	0x42200000	40.0
41	0x42240000	41.0
42	0x42280000	42.0
43	0x422c0000	43.0
44	0x42300000	44.0
45	0x42340000	45.0
46	0x42380000	46.0
47	0x423c0000	47.0
48	0x42400000	48.0
49	0x42440000	49.0
50	0x42480000	50.0
51	0x424c0000	51.0
52	0x42500000	52.0
53	0x42540000	53.0
54	0x42580000	54.0
55	0x425c0000	55.0
56	0x42600000	56.0
57	0x42640000	57.0
58	0x42680000	58.0
59	0x426c0000	59.0
60	0x42700000	60.0
61	0x42740000	61.0
62	0x42780000	62.0
63	0x427c0000	63.0
64	0x42800000	64.0
65	0x42820000	65.0
66	0x42840000	66.0
67	0x42860000	67.0
68	0x42880000	68.0
69	0x428a0000	69.0
70	0x428c0000	70.0
71	0x428e0000	71.0
72	0x42900000	72.0
73	0x42920000	73.0
74	0x42940000	74.0
75	0x42960000	75.0
76	0x42980000	76.0
77	0x429a0000	77.0
78	0x429c0000	78.0
79	0x429e0000	79.0
80	0x42a00000	80.0
81	0x42a20000	81.0
82	0x42a40000	82.0
83	0x42a60000	83.0
84	0x42a80000	84.0
85	0x42aa0000	85.0
86	0x42ac0000	86.0
87	0x42ae0000	87.0
88	0x42b00000	88.0
89	0x42b20000	89.0
90	0x42b40000	90.0
91	0x42b60000	91.0
92	0x42b80000	92.0
93	0x42ba0000	93.0
94	0x42bc0000	94.0
95	0x42be0000	95.0
96	0x42c00000	96.0
97	0x42c20000	97.0
98	0x42c40000	98.0
99	0x42c60000	99.0
100	0x42c80000	100.0
101	0x42ca0000	101.0
102	0x42cc0000	102.0
103	0x42ce0000	103.0
104	0x42d00000	104.0
105	0x42d20000	105.0
106	0x42d40000	106.0
107	0x42d60000	107.0
